artifacts/eurosat.tflite (tflite, 37288 bytes, 8 tensors)

model_5/conv2d_5/Relu;model_5/conv2d_5/BiasAdd;model_5/separable_conv2d_14/separable_conv2d/depthwise;model_5/conv2d_5/Conv2D;conv2d_5/bias i1 [32, 3, 3, 3]
00000000: 3fab 1268 d6c5 74c6 e536 a0ad 7687 c04b
00000010: c7ea 3181 d324 ba05 399a f715 4320 3765
00000020: 4f10 2f18 5b6f 6542 4747 e6ee 0aae 94d1
00000030: b381 ccb2 84df 0000 0000 0000 0000 0000
00000040: 0000 0000 0000 0000 0000 0000 0000 0000
00000050: 0000 0000 0000 0000 0000 0000 0000 0000
00000060: 0000 0000 0000 0000 0000 0000 20f1 4fe3
00000070: c050 c3db 4cf6 f278 11ce 65be b168 de00
00000080: 7fe5 037d e6aa 7100 0000 0000 0000 0000
00000090: 0000 0000 0000 0000 0000 0000 0000 0000
000000a0: 0000 0306 f425 403d 2a74 6110 f9c4 2946
000000b0: 3819 4e73 ead4 8131 29f0 1f30 32dc d2f4
000000c0: fe30 1206 350e 83ad ce0a 1811 556a 5b81
000000d0: a3a8 0621 0d3d 6a4d 1c38 a856 439d 3b1c
000000e0: 9416 24ba 2b22 8f26 2581 bc26 d7f5 3ea0
000000f0: 2036 a769 6f1d 2851 3968 7f13 351e 0122
63 -85 18 104 -42 -59 116 -58
-27 54 -96 -83 118 -121 -64 75
-57 -22 49 -127 -45 36 -70 5
57 -102 -9 21 67 32 55 101
79 16 47 24 91 111 101 66
71 71 -26 -18 10 -82 -108 -47
-77 -127 -52 -78 -124 -33 0 0
0 0 0 0 0 0 0 0
0 0 0 0 0 0 0 0
0 0 0 0 0 0 0 0
0 0 0 0 0 0 0 0
0 0 0 0 0 0 0 0
0 0 0 0 0 0 0 0
0 0 0 0 32 -15 79 -29
-64 80 -61 -37 76 -10 -14 120
17 -50 101 -66 -79 104 -34 0
127 -27 3 125 -26 -86 113 0
0 0 0 0 0 0 0 0
0 0 0 0 0 0 0 0
0 0 0 0 0 0 0 0
0 0 3 6 -12 37 64 61
42 116 97 16 -7 -60 41 70
56 25 78 115 -22 -44 -127 49
41 -16 31 48 50 -36 -46 -12
-2 48 18 6 53 14 -125 -83
-50 10 24 17 85 106 91 -127
-93 -88 6 33 13 61 106 77
28 56 -88 86 67 -99 59 28
-108 22 36 -70 43 34 -113 38
37 -127 -68 38 -41 -11 62 -96
32 54 -89 105 111 29 40 81
57 104 127 19 53 30 1 34

model_5/separable_conv2d_14/separable_conv2d/depthwise1 i1 [1, 3, 3, 32]
00000000: 8713 3351 23a8 eee3 fb7a 9517 5dae 2516
00000010: 82d3 c2ce 7f98 6056 0318 7581 2cdb 8114
00000020: c38a 3c7f 7f81 e6ca ab75 77aa 5c81 7fcf
00000030: e1f7 8181 bf12 7fcd eddc 27c6 8166 b934
00000040: e581 eea1 0f11 bb7f 8165 a4e2 7fe2 4e53
00000050: 197f a8cb 88ae 0bb7 03bf d846 8c1c 0b10
00000060: 0fea d6ed 08f8 48f2 71f4 f77f dcbf 31b0
00000070: 49c1 f3e9 b20c a7b4 958f d6a9 0be2 1a17
00000080: 6148 7f98 6825 22b4 1fd6 7823 b1d0 269e
00000090: 7ff0 41fd ef7f 4576 817f 9d3a de7f 197f
000000a0: 155f fbcf 4442 8150 930d 7fbd 181c dedc
000000b0: 664a 25ee ba2a 87c3 cbf4 8153 2757 266a
000000c0: 3642 93f0 a3be 52d5 73e1 f1b2 b6f2 fad2
000000d0: 65c0 3946 f962 3a4f e256 dc1c 34b0 6419
000000e0: 7f23 b0fa 1259 4bc7 649f a143 85fe bb81
000000f0: 74aa 5b4c ff68 9481 ccf9 bf37 fd64 3d6d
-121 19 51 81 35 -88 -18 -29
-5 122 -107 23 93 -82 37 22
-126 -45 -62 -50 127 -104 96 86
3 24 117 -127 44 -37 -127 20
-61 -118 60 127 127 -127 -26 -54
-85 117 119 -86 92 -127 127 -49
-31 -9 -127 -127 -65 18 127 -51
-19 -36 39 -58 -127 102 -71 52
-27 -127 -18 -95 15 17 -69 127
-127 101 -92 -30 127 -30 78 83
25 127 -88 -53 -120 -82 11 -73
3 -65 -40 70 -116 28 11 16
15 -22 -42 -19 8 -8 72 -14
113 -12 -9 127 -36 -65 49 -80
73 -63 -13 -23 -78 12 -89 -76
-107 -113 -42 -87 11 -30 26 23
97 72 127 -104 104 37 34 -76
31 -42 120 35 -79 -48 38 -98
127 -16 65 -3 -17 127 69 118
-127 127 -99 58 -34 127 25 127
21 95 -5 -49 68 66 -127 80
-109 13 127 -67 24 28 -34 -36
102 74 37 -18 -70 42 -121 -61
-53 -12 -127 83 39 87 38 106
54 66 -109 -16 -93 -66 82 -43
115 -31 -15 -78 -74 -14 -6 -46
101 -64 57 70 -7 98 58 79
-30 86 -36 28 52 -80 100 25
127 35 -80 -6 18 89 75 -57
100 -97 -95 67 -123 -2 -69 -127
116 -86 91 76 -1 104 -108 -127
-52 -7 -65 55 -3 100 61 109

model_5/separable_conv2d_14/separable_conv2d i1 [64, 1, 1, 32]
00000000: e47f 0f0b 100d 2cf5 fb12 fa0a f621 f4e4
00000010: fb1f 063b f608 f80f 25f1 f4d9 fffc 05f2
00000020: ffff f81f 7233 2501 a02b fb14 2834 96ef
00000030: 810d 3d96 f5cb e8dd f5e4 d7ed 19f7 0337
00000040: 0efc 17e8 59fc 03fa ef05 f0fe d912 81e8
00000050: fcfd 26b5 f5f4 111b fa08 ea21 07df 1530
00000060: 16ff f5fe 06df 0e12 0c09 fffd ef55 fcdd
00000070: ee21 15ea ebe9 10f0 2f01 18b2 0181 dd28
00000080: c606 f7f2 fd05 02fd 13f8 0f11 11fb cdfa
00000090: 0af4 d6fb 0218 f4f2 1df5 ecea fc12 0281
000000a0: e04c 0de8 260c 727f 349c fedf d7ea ee1c
000000b0: f7c1 dda4 1f4c 0ee0 b314 f910 d7fe f810
000000c0: 012c 030b c50e 2ef9 865b 08e1 5977 81de
000000d0: 094f 2333 f542 0c01 2b06 ffb6 e210 0a20
000000e0: f369 1eea d7fc 0af9 da9c e411 0a5a d6db
000000f0: c904 5c81 2736 0ef3 0ae4 d504 0adc e7e9
-28 127 15 11 16 13 44 -11
-5 18 -6 10 -10 33 -12 -28
-5 31 6 59 -10 8 -8 15
37 -15 -12 -39 -1 -4 5 -14
-1 -1 -8 31 114 51 37 1
-96 43 -5 20 40 52 -106 -17
-127 13 61 -106 -11 -53 -24 -35
-11 -28 -41 -19 25 -9 3 55
14 -4 23 -24 89 -4 3 -6
-17 5 -16 -2 -39 18 -127 -24
-4 -3 38 -75 -11 -12 17 27
-6 8 -22 33 7 -33 21 48
22 -1 -11 -2 6 -33 14 18
12 9 -1 -3 -17 85 -4 -35
-18 33 21 -22 -21 -23 16 -16
47 1 24 -78 1 -127 -35 40
-58 6 -9 -14 -3 5 2 -3
19 -8 15 17 17 -5 -51 -6
10 -12 -42 -5 2 24 -12 -14
29 -11 -20 -22 -4 18 2 -127
-32 76 13 -24 38 12 114 127
52 -100 -2 -33 -41 -22 -18 28
-9 -63 -35 -92 31 76 14 -32
-77 20 -7 16 -41 -2 -8 16
1 44 3 11 -59 14 46 -7
-122 91 8 -31 89 119 -127 -34
9 79 35 51 -11 66 12 1
43 6 -1 -74 -30 16 10 32
-13 105 30 -22 -41 -4 10 -7
-38 -100 -28 17 10 90 -42 -37
-55 4 92 -127 39 54 14 -13
10 -28 -43 4 10 -36 -25 -23

model_5/separable_conv2d_15/separable_conv2d/depthwise i1 [1, 3, 3, 64]
00000000: 3001 32b6 e4f6 2151 8162 bb40 6906 0814
00000010: eb81 c439 c97a 207f 3a66 383b eb09 81f1
00000020: 4dbe ba21 55a7 7fa6 e362 7f56 d47f d1d2
00000030: 4234 4fdb ee34 5db7 fbba ba6a 1264 330e
00000040: 0b24 6981 b33d dbf3 3a59 8a25 6c26 5869
00000050: 00d0 473a da01 d712 5839 4c60 f710 9ac3
00000060: 3dd1 b62f 0f92 09a0 db19 677f e072 85e0
00000070: 5d52 6dc9 4707 58b0 1381 817f b97f 6115
00000080: 52e1 5397 b27f 1314 2c73 eaf0 7059 7f49
00000090: 14ed 70fd fea4 137e 7f6b 1d49 4024 a281
000000a0: da2c d136 ef95 ebdd cc26 3f0a cd6e 97ee
000000b0: 6233 25c0 53e2 61b0 33ac 814a 812b 2e5a
000000c0: 1812 34b5 bd0b 0400 1267 bc26 560a 683b
000000d0: 0aab ae56 ba6a fd50 2866 4928 4547 ee00
000000e0: 7ced b863 7f46 59d2 ca35 6b43 d466 a293
000000f0: 2b6f f1de 0435 460a eeae c240 f15b 3604
48 1 50 -74 -28 -10 33 81
-127 98 -69 64 105 6 8 20
-21 -127 -60 57 -55 122 32 127
58 102 56 59 -21 9 -127 -15
77 -66 -70 33 85 -89 127 -90
-29 98 127 86 -44 127 -47 -46
66 52 79 -37 -18 52 93 -73
-5 -70 -70 106 18 100 51 14
11 36 105 -127 -77 61 -37 -13
58 89 -118 37 108 38 88 105
0 -48 71 58 -38 1 -41 18
88 57 76 96 -9 16 -102 -61
61 -47 -74 47 15 -110 9 -96
-37 25 103 127 -32 114 -123 -32
93 82 109 -55 71 7 88 -80
19 -127 -127 127 -71 127 97 21
82 -31 83 -105 -78 127 19 20
44 115 -22 -16 112 89 127 73
20 -19 112 -3 -2 -92 19 126
127 107 29 73 64 36 -94 -127
-38 44 -47 54 -17 -107 -21 -35
-52 38 63 10 -51 110 -105 -18
98 51 37 -64 83 -30 97 -80
51 -84 -127 74 -127 43 46 90
24 18 52 -75 -67 11 4 0
18 103 -68 38 86 10 104 59
10 -85 -82 86 -70 106 -3 80
40 102 73 40 69 71 -18 0
124 -19 -72 99 127 70 89 -46
-54 53 107 67 -44 102 -94 -109
43 111 -15 -34 4 53 70 10
-18 -82 -62 64 -15 91 54 4

model_5/separable_conv2d_15/separable_conv2d i1 [64, 1, 1, 64]
00000000: f022 2535 d50c 05fd 0d05 e80b db0a efed
00000010: fa4e ce15 ec10 f016 20f8 0ef1 191f 0ee3
00000020: f20e e7ec bef9 ee0d de18 81f0 f506 e30b
00000030: 12c1 05e1 3bd9 04de 04de f3de f3d2 00f8
00000040: f7b1 e21d 1311 e905 1fe0 ecf9 f00e 0ce5
00000050: fcbc a7d2 f8c4 fef4 47ed 8a08 0bfe 2010
00000060: 30e8 29f7 f722 dbef 0f47 06de ba0c ebd2
00000070: f7e8 f692 fc2d 0cdb c0da d5c5 18d3 812b
00000080: 1eee 09e8 8123 2728 cbad 11c6 0309 dcfe
00000090: 2d73 9fd9 ef03 3403 aa3a e10c f8af 6623
000000a0: bc31 baf2 bb37 0f06 f007 cc16 e173 c410
000000b0: 0a20 21f6 17b1 ddfc dec5 e841 471a f837
000000c0: f2ac c9c3 afda 61fb d2c4 e40d eed8 f8c8
000000d0: d459 2d40 0605 27ee a609 c7e6 e3a8 08f0
000000e0: d4d5 1eee f9f7 07ec d9f9 ecb1 e4ac 26ed
000000f0: 371f 367f 09ae 4d1f 85c1 c510 46fd e5f5
-16 34 37 53 -43 12 5 -3
13 5 -24 11 -37 10 -17 -19
-6 78 -50 21 -20 16 -16 22
32 -8 14 -15 25 31 14 -29
-14 14 -25 -20 -66 -7 -18 13
-34 24 -127 -16 -11 6 -29 11
18 -63 5 -31 59 -39 4 -34
4 -34 -13 -34 -13 -46 0 -8
-9 -79 -30 29 19 17 -23 5
31 -32 -20 -7 -16 14 12 -27
-4 -68 -89 -46 -8 -60 -2 -12
71 -19 -118 8 11 -2 32 16
48 -24 41 -9 -9 34 -37 -17
15 71 6 -34 -70 12 -21 -46
-9 -24 -10 -110 -4 45 12 -37
-64 -38 -43 -59 24 -45 -127 43
30 -18 9 -24 -127 35 39 40
-53 -83 17 -58 3 9 -36 -2
45 115 -97 -39 -17 3 52 3
-86 58 -31 12 -8 -81 102 35
-68 49 -70 -14 -69 55 15 6
-16 7 -52 22 -31 115 -60 16
10 32 33 -10 23 -79 -35 -4
-34 -59 -24 65 71 26 -8 55
-14 -84 -55 -61 -81 -38 97 -5
-46 -60 -28 13 -18 -40 -8 -56
-44 89 45 64 6 5 39 -18
-90 9 -57 -26 -29 -88 8 -16
-44 -43 30 -18 -7 -9 7 -20
-39 -7 -20 -79 -28 -84 38 -19
55 31 54 127 9 -82 77 31
-123 -63 -59 16 70 -3 -27 -11

model_5/separable_conv2d_16/separable_conv2d/depthwise11 i1 [1, 3, 3, 64]
00000000: 59a4 3376 3078 2f8e 9b2d 3b47 7f7f 7cc3
00000010: 7416 3397 b83d 7fc1 607f 6b02 81b0 c761
00000020: 6361 ab05 4383 1849 082f 56a8 434a f3a4
00000030: ef81 339d a177 b5af 41c9 be89 98f1 6656
00000040: 41da 6863 115c c8c0 0225 dbeb 4433 1ee8
00000050: 2721 39fb c522 2bd0 4b24 e3e8 ccd4 cd1b
00000060: 3214 c322 72d5 391a 35c6 30d6 2110 eac0
00000070: f5c0 1aad c4f8 bca7 2ab2 bfab f290 1e18
00000080: 616c f01f 6b4a 89d9 fbb8 0c0c 187a 5fd5
00000090: f25f 71d6 b16d 2db1 7b3c 811b ae38 817f
000000a0: 8130 bab0 7f40 3239 4151 ec81 2a06 ec81
000000b0: d1fe 1885 8156 8496 7f81 969b b001 254a
000000c0: 5315 c72d 0c4b e796 fe45 eafe 4069 e0e7
000000d0: 313c 5d05 ab21 28e6 0a41 742d c9de ed1c
000000e0: 7d29 9e0c 2bfa 3923 57df 1bdb 315e 08c3
000000f0: 07f7 6e08 abeb b0a8 21fc cda7 d5b2 300b
89 -92 51 118 48 120 47 -114
-101 45 59 71 127 127 124 -61
116 22 51 -105 -72 61 127 -63
96 127 107 2 -127 -80 -57 97
99 97 -85 5 67 -125 24 73
8 47 86 -88 67 74 -13 -92
-17 -127 51 -99 -95 119 -75 -81
65 -55 -66 -119 -104 -15 102 86
65 -38 104 99 17 92 -56 -64
2 37 -37 -21 68 51 30 -24
39 33 57 -5 -59 34 43 -48
75 36 -29 -24 -52 -44 -51 27
50 20 -61 34 114 -43 57 26
53 -58 48 -42 33 16 -22 -64
-11 -64 26 -83 -60 -8 -68 -89
42 -78 -65 -85 -14 -112 30 24
97 108 -16 31 107 74 -119 -39
-5 -72 12 12 24 122 95 -43
-14 95 113 -42 -79 109 45 -79
123 60 -127 27 -82 56 -127 127
-127 48 -70 -80 127 64 50 57
65 81 -20 -127 42 6 -20 -127
-47 -2 24 -123 -127 86 -124 -106
127 -127 -106 -101 -80 1 37 74
83 21 -57 45 12 75 -25 -106
-2 69 -22 -2 64 105 -32 -25
49 60 93 5 -85 33 40 -26
10 65 116 45 -55 -34 -19 28
125 41 -98 12 43 -6 57 35
87 -33 27 -37 49 94 8 -61
7 -9 110 8 -85 -21 -80 -88
33 -4 -51 -89 -43 -78 48 11

model_5/separable_conv2d_16/separable_conv2d i1 [128, 1, 1, 64]
00000000: f52f eaf3 dcfa fc06 f227 0af8 f604 f616
00000010: 2806 efc7 d402 0b17 050b ee9b fa05 e3ff
00000020: 0f1a 24c8 05ea 08f6 0112 e604 2007 fc7f
00000030: 09fe e82c fe15 16f5 13fd f3f5 fdcb 0901
00000040: dfef 3611 19e7 e67f fd12 f9c0 30ac 2f01
00000050: 33a1 d5e9 0ada a9c9 1bfd 1d14 4754 eba5
00000060: e920 200e d1fe d0be cac4 0aea c8b1 d000
00000070: 1522 d1be dfb0 1f3e c945 5663 50f1 b8ac
00000080: 070d e8e0 f54b dddf 074d 11a1 f6d9 9650
00000090: c5ff 29f5 04ff 9c2d e79f 0de4 2bd0 e981
000000a0: fb00 f1f7 1bcb 0d20 20a2 fdd4 1eef ea0b
000000b0: d6f3 e15a e312 03f1 fad6 f3f2 00b4 1330
000000c0: eff5 0a03 f9ed eae9 ece6 9718 15e2 26e8
000000d0: e509 1d1f c8f1 01ea e30d f4f1 ecef d901
000000e0: dfbe 07f8 07f3 4a81 e410 1cf4 1cfa 0103
000000f0: 0b0a daeb faf9 c1ca ffc7 242b 2307 0199
-11 47 -22 -13 -36 -6 -4 6
-14 39 10 -8 -10 4 -10 22
40 6 -17 -57 -44 2 11 23
5 11 -18 -101 -6 5 -29 -1
15 26 36 -56 5 -22 8 -10
1 18 -26 4 32 7 -4 127
9 -2 -24 44 -2 21 22 -11
19 -3 -13 -11 -3 -53 9 1
-33 -17 54 17 25 -25 -26 127
-3 18 -7 -64 48 -84 47 1
51 -95 -43 -23 10 -38 -87 -55
27 -3 29 20 71 84 -21 -91
-23 32 32 14 -47 -2 -48 -66
-54 -60 10 -22 -56 -79 -48 0
21 34 -47 -66 -33 -80 31 62
-55 69 86 99 80 -15 -72 -84
7 13 -24 -32 -11 75 -35 -33
7 77 17 -95 -10 -39 -106 80
-59 -1 41 -11 4 -1 -100 45
-25 -97 13 -28 43 -48 -23 -127
-5 0 -15 -9 27 -53 13 32
32 -94 -3 -44 30 -17 -22 11
-42 -13 -31 90 -29 18 3 -15
-6 -42 -13 -14 0 -76 19 48
-17 -11 10 3 -7 -19 -22 -23
-20 -26 -105 24 21 -30 38 -24
-27 9 29 31 -56 -15 1 -22
-29 13 -12 -15 -20 -17 -39 1
-33 -66 7 -8 7 -13 74 -127
-28 16 28 -12 28 -6 1 3
11 10 -38 -21 -6 -7 -63 -54
-1 -57 36 43 35 7 1 -103

model_5/dense_5/MatMul i1 [10, 128] scale=0.0014544465 zero_point=0
00000000: f0ff 22dd d2da e70b 3736 fceb cff8 cbff
00000010: 22f4 f5ff 3dd5 fdf0 c4af e23c eeeb b71d
00000020: edf9 f0e9 030c 1206 00fa cbc4 f509 c914
00000030: cfc1 09f1 4ceb 11fe 0123 1fd5 e6ec fff5
00000040: f1ff cf2c 00da 2dd0 22da 1ede e0e0 3799
00000050: 0a07 fcd5 0d23 0715 dae1 de1c ee40 22f7
00000060: fcdf eb05 ffe8 da03 c4db d622 dde5 ff23
00000070: bcd7 2cdd 11e2 f9e3 eefc b3e0 22f7 edd7
00000080: b901 0cfe defd 18ea f8cf f7fc fff2 13ff
00000090: 0bf6 11ff ede4 f8f8 e9e4 fbf8 e9f7 06f3
000000a0: f619 40e4 f5db f4fc 01f7 00e9 f4ff e9f4
000000b0: 07f3 f027 f6ed db50 01e6 dbee fafa ff24
000000c0: fb01 f0f7 fcdc f707 fade e748 e7fe fdeb
000000d0: 03e5 f017 ccf0 f8e7 f0fe ddef f1ee f4f2
000000e0: ece6 fae6 01e4 29ef 0902 e9e4 e9e7 ffbc
000000f0: f100 fcf2 0d2f e6de 53e6 fcdc fff3 dfe8
-0.023271143 -0.0014544465 0.04945118 -0.050905626 -0.06690454 -0.055268966 -0.03636116 0.015998911
0.07999456 0.07854011 -0.005817786 -0.030543376 -0.07126787 -0.011635572 -0.07708566 -0.0014544465
0.04945118 -0.017453358 -0.015998911 -0.0014544465 0.08872123 -0.0625412 -0.0043633394 -0.023271143
-0.08726679 -0.11781016 -0.043633394 0.08726679 -0.026180036 -0.030543376 -0.10617459 0.042178947
-0.027634483 -0.010181125 -0.023271143 -0.03345227 0.0043633394 0.017453358 0.026180036 0.008726679
0.0 -0.008726679 -0.07708566 -0.08726679 -0.015998911 0.013090018 -0.07999456 0.02908893
-0.07126787 -0.09163013 0.013090018 -0.021816697 0.11053793 -0.030543376 0.02472559 -0.002908893
0.0014544465 0.050905626 0.04508784 -0.0625412 -0.037815608 -0.02908893 -0.0014544465 -0.015998911
-0.021816697 -0.0014544465 -0.07126787 0.063995644 0.0 -0.055268966 0.06545009 -0.06981343
0.04945118 -0.055268966 0.043633394 -0.04945118 -0.046542287 -0.046542287 0.07999456 -0.14980799
0.014544465 0.010181125 -0.005817786 -0.0625412 0.018907804 0.050905626 0.010181125 0.030543376
-0.055268966 -0.04508784 -0.04945118 0.0407245 -0.026180036 0.093084574 0.04945118 -0.013090018
-0.005817786 -0.047996733 -0.030543376 0.0072722323 -0.0014544465 -0.034906715 -0.055268966 0.0043633394
-0.08726679 -0.05381452 -0.06108675 0.04945118 -0.050905626 -0.039270055 -0.0014544465 0.050905626
-0.09890236 -0.059632305 0.063995644 -0.050905626 0.02472559 -0.043633394 -0.010181125 -0.042178947
-0.026180036 -0.005817786 -0.111992374 -0.046542287 0.04945118 -0.013090018 -0.027634483 -0.059632305
-0.1032657 0.0014544465 0.017453358 -0.002908893 -0.04945118 -0.0043633394 0.034906715 -0.031997822
-0.011635572 -0.07126787 -0.013090018 -0.005817786 -0.0014544465 -0.02036225 0.027634483 -0.0014544465
0.015998911 -0.014544465 0.02472559 -0.0014544465 -0.027634483 -0.0407245 -0.011635572 -0.011635572
-0.03345227 -0.0407245 -0.0072722323 -0.011635572 -0.03345227 -0.013090018 0.008726679 -0.018907804
-0.014544465 0.03636116 0.093084574 -0.0407245 -0.015998911 -0.05381452 -0.017453358 -0.005817786
0.0014544465 -0.013090018 0.0 -0.03345227 -0.017453358 -0.0014544465 -0.03345227 -0.017453358
0.010181125 -0.018907804 -0.023271143 0.056723412 -0.014544465 -0.027634483 -0.05381452 0.11635572
0.0014544465 -0.037815608 -0.05381452 -0.026180036 -0.008726679 -0.008726679 -0.0014544465 0.052360073
-0.0072722323 0.0014544465 -0.023271143 -0.013090018 -0.005817786 -0.052360073 -0.013090018 0.010181125
-0.008726679 -0.04945118 -0.03636116 0.104720145 -0.03636116 -0.002908893 -0.0043633394 -0.030543376
0.0043633394 -0.039270055 -0.023271143 0.03345227 -0.075631216 -0.023271143 -0.011635572 -0.03636116
-0.023271143 -0.002908893 -0.050905626 -0.02472559 -0.021816697 -0.026180036 -0.017453358 -0.02036225
-0.02908893 -0.037815608 -0.008726679 -0.037815608 0.0014544465 -0.0407245 0.059632305 -0.02472559
0.013090018 0.002908893 -0.03345227 -0.0407245 -0.03345227 -0.03636116 -0.0014544465 -0.09890236
-0.021816697 0.0 -0.005817786 -0.02036225 0.018907804 0.06835899 -0.037815608 -0.04945118
0.12071906 -0.037815608 -0.005817786 -0.052360073 -0.0014544465 -0.018907804 -0.047996733 -0.034906715
